===============================================================================================
Layer (type:depth-idx)                        Output Shape              Param #
===============================================================================================
TransformerModel                              [64, 10]                  --
├─TransformerEncoder: 1-1                     [64, 784]                 --
│    └─ModuleList: 2-1                        --                        --
│    │    └─TransformerEncoderLayer: 3-1      [64, 784]                 5,678,992
├─Flatten: 1-2                                [64, 784]                 --
├─Linear: 1-3                                 [64, 10]                  7,850
===============================================================================================
Total params: 5,686,842
Trainable params: 5,686,842
Non-trainable params: 0
Total mult-adds (M): 206.41
===============================================================================================
Input size (MB): 0.20
Forward/backward pass size (MB): 2.26
Params size (MB): 12.90
Estimated Total Size (MB): 15.36
…
